checkpoints/arch/CNN2.pt (torch_old, 22108 bytes, 4 tensors)

weight f4 [8, 1, 1, 5]
00000000: 0db1 2040 af28 ea3f c403 9b3d 2510 bdbf
00000010: 5668 36c0 ff8c 7f3f 340f 793e f1e5 c3be
00000020: 0931 083f c392 493f 02e7 723f f749 183f
00000030: c969 0ebf b4b5 953e 9a64 863f 968d b83f
00000040: ba32 03bf 74f8 9ac0 17f2 7bc0 3a6c 2ebe
00000050: 8f6d 503f ec4d 9c3e 4ea2 67be 3015 433f
00000060: ee11 033f 1558 133b 4673 cb3a 0dd2 963a
00000070: 766e ec3a b863 2a3b 3d08 6dc0 a5c5 0cc0
00000080: 008b 14bf 84ef e53f 4210 1c40 b9b5 ee3f
00000090: 936d a33f 9acd 563d 9162 29c0 98c1 70c0
2.5108063 1.8293666 0.075690776 -1.4770552 -2.8501182 0.9982452 0.24322206 -0.3826137
0.5319982 0.78739566 0.9488374 0.5948786 -0.55630165 0.2924019 1.0499451 1.4418209
-0.5124928 -4.8428288 -3.936651 -0.17033473 0.81417173 0.305282 -0.22620508 0.76204205
0.51199234 0.002248292 0.0015522025 0.0011506692 0.0018038291 0.0025999378 -3.7036278 -2.1995633
-0.580246 1.7963719 2.4384923 1.8649207 1.2767814 0.05244217 -2.646641 -3.761816

bias f4 [8]
00000000: 8b5d 01be e212 9bbf e6ea afbf 7578 ee3f
00000010: 6752 8bbf 81f1 8f3f 96ea ec3e eec0 3d3f
-0.1263334 -1.2115138 -1.374356 1.863051 -1.0884522 1.1245576 0.46272725 0.7412251

weight f4 [7, 176]
00000000: 1c36 873c 6ddd e03d c661 6dbf 29b1 77bf
00000010: e8ae 7abf e70e 63bf b362 69bf 187f 60bf
00000020: 4af2 44bf 4488 24bf 42e6 c2be 9d96 023d
00000030: 55a8 e73c e118 a3be af53 acbe d78e fdbd
00000040: ac5e d8bd 3d95 80be 8639 f0bd 770f 0dbf
00000050: ad76 8dbf 02ee 30bf f18e 013f 8a1a 053e
00000060: e27c eb3d 118c c93d ecc2 103e 220c db3d
00000070: 0542 bf3d a20c dd3d fde5 2a3d 37a8 933d
00000080: 3e19 4b3d b48c 833d 38a2 e23c af06 cfbb
00000090: 26be 003d 03fb 813c f0fa 683c e3ea 0c3d
000000a0: 965d ad3c 471c 33bd 77b9 0fbd 916c 673d
000000b0: e08b 173f 78ff b13d 965b be3d 6bd5 a93d
000000c0: 976b d63d 4f08 bb3d 5b94 5d3d bf79 863d
000000d0: c782 b53a af6d d53c e2c5 873d 4cce 983d
000000e0: c0f2 7d3c 02cb 213b 5d96 da3c 3d1d 013c
000000f0: 4531 283a 749b 103d 8e45 003c 1bf1 9fbc
00000100: 9afd 45bd 6df9 143d 793e c1be 35de 5cbf
00000110: ebb0 44bf 496a 47bf 5681 57bf 8b9a 5ebf
00000120: 9f79 36bf 3e56 46bf 3ee0 30bf 7098 0dbf
00000130: 813b debe d110 bcbe 453d f0be 2898 2dbf
00000140: 399b 3abf 5b83 88bf 4060 85bf 66f6 8bbf
00000150: 96c4 6dbf 25e0 41bf 05c3 5bbf 8367 53bf
00000160: 7cde e93e 9773 ea3d c30d f43d a170 993d
00000170: 9812 013e 5573 0d3e e7f7 ce3d fecd f53d
00000180: ab06 373d 4a92 953d 7185 e03d 5368 e33d
00000190: 2cad ea3c 5835 493c 3aa2 603d 7074 88bb
000001a0: 0ba1 843d d974 563d be23 883d ab67 aabc
000001b0: 9877 b7bb cd34 5f3c 3b87 303e 53cc 4f3e
000001c0: 3f67 413e c911 453e 2647 543e 4c95 3c3e
000001d0: 1d9a 553e 7116 623e b2a2 463e 3823 4e3e
000001e0: 4062 563e 4b56 563e 9e0b 673e e233 3d3e
000001f0: ff70 3f3e 783e 633e fdd7 573e a0d5 433e
00000200: 6e62 383e 1193 5f3e ed27 5b3e 2544 453e
00000210: 1336 50be cd96 2a3d 5f06 3a3d 8eb9 4dbe
00000220: 3b4f b9be b110 14bf fac0 4dbf abd7 44bf
00000230: 99d4 37bf 86a2 32bf 3935 0dbf 427a fabe
00000240: cdce 09bf 3d26 36bf 8af1 4bbf 054f 8fbf
00000250: f9ce 45bf e8ec 34bf 2271 90bf ae17 71bf
00000260: 52e0 31bf d5df 03bf fee2 63bd b159 21bf
00000270: 988a 88bf 78d6 64bf 83ae 74bf 1a93 5bbf
00000280: cffc 54bf 3c4d 55bf 7c49 43bf 0410 1ebf
00000290: 2ae8 f4be c72b e5bd 2271 02be a7c2 efbe
000002a0: 5e0e 03bf 0f30 91be 801e 74be 115e d0be
000002b0: 76c3 77be 0265 3abf 5b65 8fbf 06e9 9dbf
000002c0: 5269 2e3d a5ab 42be 7be3 cd3e f0e2 a43e
000002d0: 1dc5 e33e de09 cb3e fa3d d33e c95e df3e
000002e0: 3fcb c03e 4c1d dc3e 77d2 f03e 5eb7 2e3d
000002f0: 6feb 313e 0cac a03e 2f8d ae3e a1a2 b63e
00000300: 142a 2c3e b1f3 313e 2235 1d3e 92f9 723e
00000310: 6117 dc3e a262 a23e 845d 61bf ec67 f13d
00000320: 0ebf 9ebd 74f3 8ebc 6e04 0abe 4f3e c8bd
00000330: 07f0 dabd dd85 0cbe 0c9b 87bd 5fd5 09bd
00000340: 7c4c f9bc 916f ccbd 4606 db3b 52bc ed3c
00000350: d9c0 99bd 5490 dfbd aa40 ecbd f197 02be
00000360: cd40 f9bd 290b 213d 6947 81bd 7d6e 643b
00000370: e196 88bf 294c 023e 123e 54bd 305e 143d
00000380: 2d65 0cbe 8289 94bd d8a1 e8bd 3b29 23be
00000390: 1ac2 8bbd 54ee 4bbd e20c 3c3c 56f7 9fbd
000003a0: 3b60 443c dc6d 3a3d c8b1 97bd 4188 02be
000003b0: f7ab d5bd c4f6 19bd df58 50bd 442e e23d
000003c0: 18ea 23bd 2714 bfbc 7667 1e3e bad5 c23e
000003d0: 68fc 9a3e 4ca3 733e 5a66 e13e b490 c03e
000003e0: 7aed 9a3e c626 be3e e18d c23e cd6f 133e
000003f0: 76ca 233e d016 853e 69e9 9e3e a5ed 883e
0.016505294 0.109797336 -0.92727315 -0.967547 -0.97923136 -0.88694614 -0.9116623 -0.8769393
-0.76932204 -0.64270425 -0.38066298 0.031881917 0.02827851 -0.3185492 -0.33657596 -0.1238076
-0.10564932 -0.2511386 -0.11729722 -0.5510172 -1.1051842 -0.6911317 0.50608736 0.12998405
0.11498429 0.09841169 0.14136857 0.106956735 0.09338764 0.10793425 0.04172324 0.07209819
0.04958462 0.06423321 0.027665243 -0.0063179354 0.03143134 0.015866762 0.014219984 0.034403693
0.02116279 -0.04372814 -0.035088982 0.05650002 0.5919781 0.08691305 0.092948124 0.08292659
0.1046974 0.09132444 0.05409656 0.0656619 0.0013848179 0.026053278 0.0662954 0.07461223
0.015499771 0.0024687652 0.026683027 0.007880506 0.0006416033 0.0353045 0.007829083 -0.019524148
-0.048337556 0.036370683 -0.37742975 -0.8627656 -0.76832455 -0.77896553 -0.84181726 -0.86954564
-0.7127933 -0.77475345 -0.69092166 -0.55310726 -0.43404773 -0.3673158 -0.46921745 -0.67810297
-0.728931 -1.0665087 -1.0419998 -1.093457 -0.9287809 -0.7573264 -0.8584445 -0.8257982
0.45677555 0.11447828 0.11916687 0.074921854 0.12604749 0.13813527 0.10105877 0.120021805
0.044684093 0.07303293 0.10962952 0.11103883 0.028647028 0.012280785 0.05484221 -0.004164271
0.06476029 0.05235753 0.06647442 -0.020801386 -0.0055989735 0.0136234285 0.17239086 0.20292787
0.18887042 0.19245066 0.20730266 0.18416327 0.20859571 0.22078873 0.19398001 0.20130622
0.20935917 0.20931356 0.22563025 0.18476823 0.18695448 0.22191799 0.21078487 0.1912446
0.18006298 0.21833445 0.21401949 0.19264276 -0.20333128 0.04164772 0.045416232 -0.20090315
-0.3619326 -0.5783797 -0.80372584 -0.76891583 -0.71808773 -0.6977924 -0.55159336 -0.489214
-0.5383118 -0.71152097 -0.79665434 -1.119599 -0.7726894 -0.7067399 -1.1284525 -0.9417676
-0.6948291 -0.51513416 -0.0556364 -0.63027483 -1.0667295 -0.89389753 -0.95578784 -0.85771334
-0.83198255 -0.83320975 -0.76284003 -0.6174319 -0.47833377 -0.111899905 -0.12738469 -0.46828195
-0.511938 -0.28356978 -0.2383976 -0.40696767 -0.24195656 -0.72810376 -1.1202806 -1.2336738
0.04258091 -0.1901079 0.40212616 0.3220439 0.44486323 0.39655966 0.41258222 0.43627003
0.37655064 0.42991102 0.47035572 0.04265534 0.17374967 0.3138126 0.3409209 0.3567095
0.16812927 0.17378117 0.153523 0.23728016 0.42986587 0.31715876 -0.8803332 0.117874
-0.077512845 -0.017450072 -0.13478252 -0.097775094 -0.10690313 -0.1372294 -0.0662137 -0.033650752
-0.030431978 -0.09982217 0.0066840975 0.029020462 -0.07507486 -0.109162 -0.11535771 -0.12753274
-0.12170563 0.039317284 -0.063124485 0.0034855895 -1.0671045 0.12724365 -0.051817007 0.036222637
-0.1371047 -0.0725279 -0.11358994 -0.15933697 -0.06824131 -0.049787834 0.011477681 -0.078108475
0.011985834 0.045514926 -0.07406956 -0.12747289 -0.1043319 -0.03758885 -0.050866004 0.11043981
-0.04001817 -0.02332504 0.15469155 0.38053685 0.30270696 0.23792762 0.440234 0.376104
0.30259305 0.37138957 0.3799887 0.14398117 0.15995201 0.25993967 0.31037453 0.26743808

bias f4 [7]
00000000: 204a 3440 1e9d d9bf d408 3840 984b 973f
00000010: b17d c03e 3187 9ac0 c59d 5fbf
2.8170242 -1.7001073 2.8755388 1.1819944 0.37595895 -4.829003 -0.8735011
