checkpoints/arch/CNN3.pt (torch_old, 21764 bytes, 6 tensors)

weight f4 [16, 1, 1, 5]
-0.39886525 -0.49970073 0.09331126 0.9448719 0.5042771 1.1166563 1.4981456 0.727137
-0.32285 -3.1156588 -0.6231011 -0.04796012 -0.919083 0.25145352 1.241083 0.36621153
0.107230864 -1.1594639 0.18330957 0.5087332 0.033413887 -0.13679996 -0.33866265 0.011978507
0.047366172 -1.122714 -1.3757598 0.07954732 0.6397447 1.5822414 -0.07485705 -0.3422398
-0.20230396 0.40875036 -0.049482185 1.5559751 -0.41635162 -1.9899462 -1.2925729 -1.1050541
1.4849373 1.2836856 0.9592925 -0.91457665 -0.05152386 -0.2326403 -0.30055028 -0.38879478
0.32758468 -0.24711713 -0.2869556 0.28113952 -0.35009742 0.37808752 -0.44438624 -1.3159201
-2.072299 -1.8558959 -1.3170704 -1.1104397 0.36440212 0.32373843 -0.065223515 0.6202453
0.23623799 -2.593507 -0.42983526 0.6649922 1.0585053 1.2414514 0.03655754 0.019113885
0.59071666 -0.017192408 -3.2842004 0.45568487 0.90602666 0.51620346 1.1597384 1.2862095
00000000: 1138 ccbe c6d8 ffbe f919 bf3d 20e3 713f
00000010: 4e18 013f 98ee 8e3f 3cc3 bf3f a725 3a3f
00000020: 984c a5be f466 47c0 8e83 1fbf d571 44bd
00000030: 0649 6bbf 84be 803e cfdb 9e3f 1480 bb3e
00000040: db9b db3d 5069 94bf 81b5 3b3e 573c 023f
00000050: 00dd 083d 4a15 0cbe 3165 adbe 8041 443c
00000060: 0803 423d 18b5 8fbf e618 b0bf b5e9 a23d
00000070: 4fc6 233f e386 ca3f a74e 99bd 0e3a afbe
00000080: c528 4fbe ba47 d13e d5ad 4abd 312a c73f
00000090: 0a2c d5be 8fb6 febf 0773 a5bf 6a72 8dbf
000000a0: 6d12 be3f cf4f a43f 3194 753f b221 6abf
000000b0: af0a 53bd 4239 6ebe bae1 99be 1c10 c7be
000000c0: 2eb9 a73e 460c 7dbe d8eb 92be 85f1 8f3e
000000d0: f83f b3be b094 c13e 9886 e3be 1270 a8bf
000000e0: 8ca0 04c0 ff8d edbf c395 a8bf e322 8ebf
000000f0: ea92 ba3e 0bc1 a53e e893 85bd 65c8 1e3f
00000100: 5fe8 713e 05fc 25c0 5e13 dcbe ee3c 2a3f
00000110: 1a7d 873f e1e7 9e3f 5cbd 153d b994 9c3c
00000120: 3539 173f 18d7 8cbc 5730 52c0 874f e93e
00000130: 5df1 673f e925 043f 4f72 943f 83a2 a43f

bias f4 [16]
2.1279495 0.15561889 0.13754818 -0.21050298 -0.21775468 0.22372478 -0.33053732 0.23541546
-0.1267265 -0.19016427 -0.16178139 2.6468542 0.41047013 0.028387623 0.8275938 -0.18448988
00000000: 5330 0840 8f5a 1f3e 6ed9 0c3e 188e 57be
00000010: 15fb 5ebe 1c18 653e 303c a9be c010 713e
00000020: 97c4 01be 6cba 42be 05aa 25be 0f66 2940
00000030: 2429 d23e 298d e83c 30dd 533f eaea 3cbe

weight f4 [8, 16, 1, 5]
-0.8011739 -0.010156175 -0.78712875 -0.38695705 -0.38220388 -0.03083803 0.5666747 -0.5384539
-0.1149851 0.82236487 0.19660161 0.13767236 -0.12682088 0.33561572 -0.20246084 0.35870656
0.028165355 0.026070355 0.2804402 -0.05161182 0.055623263 0.069834515 0.0005211085 -0.07657591
-0.072621465 0.0868619 -0.120127544 -0.08677522 0.6050339 -0.19518031 -0.016934318 0.0005509119
0.04256139 -0.029507002 -0.032045912 0.12297253 0.4816469 0.70079726 0.21793169 0.072624475
0.5113624 0.045789637 0.020628126 0.14041074 0.24092722 0.04968773 0.026369303 0.024813607
-0.047026344 -0.08682239 -0.098500006 0.027850455 -0.012474678 -0.061073016 -0.08702681 0.79542285
-0.6385457 0.8688253 1.9681299 -0.03759519 -0.48163617 0.030043086 -0.11395085 0.13132516
0.018845614 0.35095382 -0.019504398 0.043239553 0.41458458 -0.13995107 -0.31250942 0.50656474
0.26157236 0.57027304 0.9433785 -0.7024231 0.6686853 0.27171248 0.59504473 0.4110597
-0.5144809 -0.4152347 -0.23010415 -0.54438996 -0.7592029 0.52195734 0.3546101 -0.045587655
0.23974109 -0.28863445 0.07763472 -0.06346046 0.13091683 -0.05029401 -0.029487249 0.11612908
0.4885685 0.08938568 0.3731798 0.2539647 -0.026377358 -0.0413329 0.013163939 -0.06624719
-0.09020139 0.09801666 -0.061450016 0.33509108 0.11803554 0.4988316 0.056739073 0.039409418
-0.004215011 -0.0569722 -0.010033813 0.8289716 0.21701674 0.49686098 0.19252476 -0.086278826
0.7397224 0.20055826 0.25258568 0.3446219 0.23716916 0.03738162 -0.023823582 -0.038370095
0.108784884 -0.059717372 0.10826164 0.0028687094 -0.08760396 0.08046375 0.025157137 0.07259306
0.16099027 0.22680978 0.343399 1.4945352 -0.3901777 -0.27531078 0.053658906 0.10024524
-0.21936554 0.17262472 0.31112295 0.62420034 0.35392752 0.61913466 0.4009485 0.70428467
0.34843972 0.5958335 0.66690844 -0.26330692 -0.40680185 0.74975765 0.31304765 -0.06368344
-0.15068191 -0.20576857 -0.112202205 0.29207984 0.48798263 0.33563343 -0.86338115 -0.5907807
-0.05037797 -0.5458589 -0.07304655 -0.2603606 -0.34629047 0.3359998 0.05712073 -0.18122011
-0.12520307 -0.13581085 0.023187663 -0.0539026 -0.0041784346 -0.021718979 0.020800069 -0.012195177
-0.07670895 -0.14790855 -0.08862358 -0.5394666 0.25673917 0.047197826 -0.025094794 0.025795884
-0.04736405 0.04368841 0.086230665 -0.6348477 -0.475185 -0.53140914 -0.11361064 -0.23587665
0.0977587 -0.4277117 -0.61738133 0.2082606 0.29572383 0.010715395 0.027238071 -0.004542373
-0.08977246 0.048013598 0.09394346 0.048862852 0.02276997 -0.08603213 -0.092176095 0.30296883
-0.22197515 -0.025710974 0.5014413 -0.4492308 0.02962622 -0.1160043 -0.12585656 0.115933396
0.37676087 0.09297014 0.18200476 -0.62128836 0.17623235 -0.05306412 -0.029947998 -0.47831255
-0.18899202 -0.14810723 -0.08940847 -0.13922374 -0.9859734 -0.17136373 0.3771284 0.9051114
-0.17033829 0.34586266 0.25086543 0.021799188 0.00964101 -0.41208887 0.20009981 0.26651955
-0.5007527 1.3765018 -0.39468774 -0.08122228 -0.04956629 -0.19611359 -0.55554897 -0.13937494
00000000: bc19 4dbf 1666 26bc 4581 49bf 3c1f c6be
00000010: 3ab0 c3be 09a0 fcbc 9811 113f 1dd8 09bf
00000020: 4f7d ebbd 8186 523f ef51 493e fcf9 0c3e
00000030: 55dd 01be d3d5 ab3e e551 4fbe 63a8 b73e
00000040: 08bb e63c 7f91 d53c dc95 8f3e ea66 53bd
00000050: 38d5 633d 6605 8f3d 009b 083a d5d3 9cbd
00000060: 90ba 94bd a7e4 b13d 6e05 f6bd 35b7 b1bd
00000070: 80e3 1a3f 59dd 47be d7b9 8abc 126b 103a
00000080: da54 2e3d abb8 f1bc 9342 03bd 06d9 fb3d
00000090: 6c9a f63e 7367 333f 7c29 5f3e 24bc 943d
000000a0: a5e8 023f ea8d 3b3d 51fc a83c d5c7 0f3e
000000b0: a0b5 763e 5c85 4b3d 7004 d83c e845 cb3c
000000c0: b29e 40bd f0cf b1bd 5fba c9bd a326 e43c
000000d0: 9862 4cbc b327 7abd 1d3b b2bd d5a0 4b3f
000000e0: bb77 23bf 566b 5e3f aeeb fb3f 6afd 19bd
000000f0: 0499 f6be eb1c f63c 105f e9bd 1a7a 063e
00000100: 1e62 9a3c 38b0 b33e b0c7 9fbc f51b 313d
00000110: 6e44 d43e 554f 0fbe 3c01 a0be 3aae 013f
00000120: d0ec 853e 6afd 113f 4181 713f 00d2 33bf
00000130: f62e 2b3f e61d 8b3e da54 183f 6b76 d23e
00000140: 05b5 03bf a599 d4be 6ca0 6bbe 245d 0bbf
00000150: 1f5b 42bf ff9e 053f 748f b53e 1fba 3abd
00000160: b07e 753e e5c7 93be f4fe 9e3d 8ff7 81bd
00000170: 100f 063e 1801 4ebd 3e8f f1bc 15d5 ed3d
00000180: a725 fa3e d70f b73d 6c11 bf3e a907 823e
00000190: 5415 d8bc b04c 29bd 90ad 573c 9bac 87bd
000001a0: 82bb b8bd f5bc c83d 03b3 7bbd 0f91 ab3e
000001b0: 9ebc f13d db66 ff3e 3b67 683d c56b 213d
000001c0: 131e 8abb ae5b 69bd dd64 24bc 7c37 543f
000001d0: a339 5e3e 9064 fe3e 3625 453e f4b2 b0bd
000001e0: 725e 3d3f 255f 4d3e e952 813e 4872 b03e
000001f0: 79dc 723e 781d 193d ac29 c3bc f629 1dbd
00000200: 9cca de3d 349a 74bd 47b8 dd3d f500 3c3b
00000210: b469 b3bd 2eca a43d 5716 ce3c acab 943d
00000220: a2da 243e d340 683e fed1 af3e ee4c bf3f
00000230: 5fc5 c7be 89f5 8cbe 71c9 5b3d 604d cd3d
00000240: 5ca1 60be 89c4 303e 824b 9f3e 98cb 1f3f
00000250: fd35 b53e 9c7f 1e3f 1f49 cd3e 004c 343f
00000260: b166 b23e 8b88 183f 83ba 2a3f 2ad0 86be
00000270: 5548 d0be 1ef0 3f3f c847 a03e 776c 82bd
00000280: 5c4c 1abe ffb4 52be 45ca e5bd 7d8b 953e
00000290: dcd8 f93e 25d8 ab3e 8c06 5dbf 673d 17bf
000002a0: 2159 4ebd 69bd 0bbf 6e99 95bd fc4d 85be
000002b0: fc4c b1be 2a08 ac3e 6df7 693d c491 39be
000002c0: 3c35 00be 0012 0bbe 0ef4 bd3c f9c8 5cbd
000002d0: 40eb 88bb 00ec b1bc e864 aa3c 48ce 47bc
000002e0: 9519 9dbd 5775 17be 4880 b5bd 7c1a 0abf
000002f0: 5173 833e 8252 413d 9993 cdbc e451 d33c
00000300: ce00 42bd 9ef2 323d b499 b03d 6185 22bf
00000310: 734b f3be 6e0a 08bf b2ac e8bd a689 71be
00000320: b735 c83d 07fd dabe b40c 1ebf 4442 553e
00000330: 1d69 973e a08f 2f3c 6022 df3c 30d8 94bb
00000340: a0da b7bd e8a9 443d 6e65 c03d 6a24 483d
00000350: 1788 ba3c 9d31 b0bd d2c6 bcbd bb1e 9b3e
00000360: 744d 63be d29f d2bc 755e 003f 9401 e6be
00000370: b0b2 f23c aa93 edbd 8be0 00be 7d6e ed3d
00000380: cde6 c03e 2167 be3d 755f 3a3e c10c 1fbf
00000390: 4176 343e c359 59bd 8155 f5bc 62e5 f4be
000003a0: 2087 41be 6ca9 17be ca1b b7bd ab90 0ebe
000003b0: c168 7cbf f979 2fbe f916 c13e 61b5 673f
000003c0: 296d 2ebe e914 b13e 6f71 803e 3694 b23c
000003d0: 54f5 1d3c 50fd d2be f7e6 4c3e 4075 883e
000003e0: 5431 00bf 3631 b03f 8314 cabe de57 a6bd
000003f0: 0606 4bbd 00d2 48be 7538 0ebf 4eb8 0ebe

bias f4 [8]
-0.68251264 -0.67318785 0.0010681029 0.27583337 -0.1925205 -0.063588195 -0.6917719 0.19238418
00000000: 26b9 2ebf 0a56 2cbf 96ff 8b3a 083a 8d3e
00000010: 1824 45be 873a 82bd f717 31bf 5c00 453e

weight f4 [7, 32]
-1.5270318 -1.447249 -0.8021779 -1.8124079 -1.2060131 -1.2280318 -0.871351 -1.8897642
-0.0056501837 -0.90799814 -0.43271613 0.46105108 0.034674607 -1.0161501 -0.4053322 -0.38401395
-0.24404633 -1.242057 -0.61771965 -0.7222597 0.21607092 0.46644816 0.49046382 0.22675228
-1.6407828 -1.3739793 -1.0766836 -1.4027048 0.2653737 0.42912248 0.4515821 0.37959528
0.68701416 0.2760381 0.34664106 0.61635214 0.58777237 0.36277527 0.28402758 0.63961494
0.09128594 0.18077399 0.1461323 -0.46892658 0.29368547 0.09367493 -0.41730738 0.38159665
0.5465742 0.63708216 0.37249616 0.4841504 -0.117406994 0.2513409 0.25459918 -0.090242535
0.7192752 0.34693065 0.35170832 0.4221916 -0.27865762 -0.026502253 0.06988486 -0.11965152
0.6684195 0.21063732 0.25803077 0.5377867 0.52307165 0.28112584 0.16817436 0.53566533
0.1549502 0.2690121 1.0014842 0.44117546 0.4180215 0.5400609 0.5444383 0.96702874
0.61795723 0.6652425 0.32604578 0.5440919 -0.062969394 0.30394885 0.2102677 -0.52576447
0.68720245 0.30628562 0.28057215 0.3786615 -0.18872795 0.36298433 0.3289535 -0.050416984
-2.048743 -0.13334118 0.1848149 0.44254497 -1.4173763 -0.033180483 0.0993856 0.42221314
-0.32873514 -0.29209512 0.20709382 -0.42398468 -1.1058816 0.0874545 0.45496282 0.8175278
-1.6809947 -1.2692943 -0.041813012 0.28988898 0.20990345 0.43725073 0.44342974 0.13236837
-1.8549339 0.1129272 0.2183792 0.3230974 0.26424345 0.41246626 0.4375968 0.31184927
0.6048186 0.10120973 0.11489278 -0.6299453 0.58104956 0.062363155 0.03446194 -0.87763083
0.11036897 0.21410094 0.9472036 0.16169988 0.05914102 0.05140649 -0.40475318 -1.8550438
0.6672047 0.6431025 0.3195231 0.15227501 0.15288635 0.43682635 0.50461483 0.29168507
0.7109647 0.097384416 0.011659588 -0.8394854 0.15667576 0.39955136 0.4327483 0.39075136
0.7107213 0.29351315 0.3529659 0.63056546 0.6132674 0.3775542 0.29977044 0.66434693
0.052847683 0.17542975 -0.9768849 -0.49927098 0.3249316 0.38013685 0.13807547 -1.0663807
-0.7145188 -0.124208495 -0.6172684 -0.58152246 -0.17554313 -2.000039 -2.17261 -0.729926
0.7421512 0.3606812 0.3507369 0.44545904 -0.17776185 -2.1546347 -2.151867 -1.1495456
0.5707286 0.16382523 0.154167 0.43165454 0.5003004 0.19454944 0.05948307 0.449989
0.10051074 0.23119354 -1.1739172 0.07296674 0.11637993 -0.009261209 0.39405638 0.77025425
0.61556983 0.71461594 0.31243092 0.03354647 0.15061182 0.46774173 0.51735276 0.23456213
0.6252131 0.15509205 0.22066927 0.31945264 0.1764407 0.36984438 0.4742535 0.3607597
00000000: c775 c3bf 753f b9bf 885b 4dbf fbfc e7bf
00000010: a35e 9abf 2530 9dbf dc10 5fbf cbe3 f1bf
00000020: 2d25 b9bb 9172 68bf f88c ddbe e30e ec3e
00000030: f606 0e3d 3511 82bf b487 cfbe 7a9d c4be
00000040: 48e7 79be b9fb 9ebf e022 1ebf 03e6 38bf
00000050: b241 5d3e 4bd2 ee3e 131e fb3e c031 683e
00000060: 2c05 d2bf 8ede afbf c5d0 89bf d58b b3bf
00000070: 10df 873e f1b5 db3e c535 e73e 505a c23e
00000080: 29e0 2f3f de54 8d3e f07a b13e 41c9 1d3f
00000090: 4078 163f aebd b93e 106c 913e cebd 233f
000000a0: 1ff4 ba3d d11c 393e b5a3 153e 2517 f0be
000000b0: f15d 963e a4d8 bf3d 50a9 d5be a360 c33e
000000c0: 49ec 0b3f d117 233f d1b7 be3e 90e2 f73e
000000d0: 1473 f0bd c1af 803e d35a 823e 14d1 b8bd
000000e0: 6b22 383f e5a0 b13e 1d13 b43e 7f29 d83e
000000f0: 36ac 8ebe 411b d9bc cb1f 8f3d db0b f5bd
00000100: 8a1d 2b3f 4fb1 573e 9c1c 843e 64ac 093f
00000110: 06e8 053f baef 8f3e e635 2c3e 5d21 093f
00000120: 44ab 1e3e f4bb 893e a230 803f c0e1 e13e
00000130: ea06 d63e 6e41 0a3f 4f60 0b3f 328f 773f
00000140: 7232 1e3f 554d 2a3f 79ef a63e 9b49 0b3f
00000150: 19f6 80bd 2f9f 9b3e 6a50 573e 8098 06bf
00000160: 80ec 2f3f 78d1 9c3e 27a7 8f3e ecdf c13e
00000170: e641 41be 15d9 b93e 986c a83e 0a82 4ebd
00000180: 9b1e 03c0 978a 08be 1e40 3d3e 4195 e23e
00000190: 966c b5bf 42e8 07bd ad8a cb3d 522c d83e
000001a0: f94f a8be 7e8d 95be 6710 543e 8514 d9be
000001b0: 878d 8dbf 581b b33d e3f0 e83e 8049 513f
000001c0: d62a d7bf 3c78 a2bf 1f44 2bbd 546c 943e
000001d0: eef0 563e 54df df3e 3909 e33e 938b 073e
000001e0: 796e edbf 6046 e73d cc9e 5f3e 066d a53e
000001f0: eb4a 873e c72e d33e b00c e03e b5aa 9f3e
00000200: 64d5 1a3f 0c47 cf3d e84c eb3d 1844 21bf
00000210: aabf 143f 8270 7f3d f727 0d3d 6aac 60bf
00000220: 2009 e23d 473d 5b3e ef7b 723f a794 253e
00000230: db3d 723d 9d8f 523d cf3b cfbe 1372 edbf
00000240: edcd 2a3f 5ea2 243f 8898 a33e fbed 1b3e
00000250: 3d8e 1c3e b4a7 df3e 702e 013f bf57 953e
00000260: c801 363f 7b71 c73d db07 3f3c 84e8 56bf
00000270: 9c6f 203e ff91 cc3e 2f91 dd3e 9010 c83e
00000280: d5f1 353f 5b47 963e f2b7 b43e bd6c 213f
00000290: 18ff 1c3f c94e c13e 837b 993e a412 2a3f
000002a0: d076 583d dba3 333e 2115 7abf 72a0 ffbe
000002b0: 6f5d a63e 4ca1 c23e a863 0d3e 2a7f 88bf
000002c0: b4ea 36bf 0661 febd 4d05 1ebf a8de 14bf
000002d0: 94c1 33be a400 00c0 0b0c 0bc0 6edc 3abf
000002e0: 9ffd 3d3f 35ab b83e c993 b33e 3513 e43e
000002f0: 3407 36be 89e5 09c0 30b8 09c0 4f24 93bf
00000300: 451b 123f cdc1 273e f4dd 1d3e d301 dd3e
00000310: b013 003f f837 473e 85a4 733d f564 e63e
00000320: 93d8 cd3d 00be 6c3e eb42 96bf 966f 953d
00000330: 9a58 ee3d 53bc 17bc c2c1 c93e 622f 453f
00000340: fc95 1d3f 12f1 363f f2f6 9f3e 0668 093d
00000350: fc39 1a3e d87b ef3e 3b71 043f 0e31 703e
00000360: f70d 203f 73d0 1e3e 20f7 613e 4c8f a33e
00000370: dfac 343e 3e5c bd3e 5bd1 f23e 7fb5 b83e

bias f4 [7]
4.303521 -3.0182633 -3.0038264 2.666168 0.6950208 -1.6100256 -0.33131933
00000000: 72b6 8940 3a2b 41c0 b13e 40c0 7fa2 2a40
00000010: e2ec 313f 5215 cebf b0a2 a9be
