archCheckpoint/CNN1.pt (torch_old, 19778 bytes, 6 tensors)

weight f4 [4, 1, 1, 5]
0	0xc0b6c1f3	-5.7111754
1	0x3e2f5525	0.17122324
2	0x3e85460f	0.26030013
3	0xbf3f8a68	-0.74820566
4	0x3fa2b217	1.2710599
5	0xbe725990	-0.23666978
6	0xbe8d1a62	-0.2755919
7	0xbe9cc0b6	-0.30615777
8	0xbec79f32	-0.38988644
9	0xbe9fc60a	-0.3120578
10	0xbf81eaa8	-1.0149736
11	0x3f2c547c	0.6731641
12	0x3f4c316e	0.79762924
13	0x3f67a5be	0.9048728
14	0x400b6fb8	2.1786938
15	0x3f5ae218	0.8550124
16	0x3f4b021f	0.7930011
17	0x3f0dadb9	0.55343205
18	0x3e040000	0.12890625
19	0x3f6ff0a2	0.9372655

bias f4 [4]
0	0x3fb9b253	1.4507545
1	0xbe17bb70	-0.14817595
2	0xbd462ed4	-0.048384503
3	0x3ffd781b	1.9802278

weight f4 [4, 4, 1, 5]
0	0x3f9f9cbc	1.2469707
1	0x3f62b6e3	0.88560313
2	0x3dee190c	0.11625871
3	0x3d499856	0.049217544
4	0x3fc7e5ef	1.5617045
5	0xbe13581e	-0.14389083
6	0x3da7d660	0.08195186
7	0x3df6285c	0.12019417
8	0xbe5b9fda	-0.21447697
9	0x3e620ec4	0.22075945
10	0x3ee72d35	0.45151678
11	0xbf14e243	-0.5815775
12	0x3f2c8c1a	0.6740128
13	0x3f93505a	1.1508896
14	0xbf3682c6	-0.71293294
15	0x3f39ae1c	0.72531295
16	0x3e789b7c	0.24278063
17	0xbe0d1b79	-0.13780011
18	0xbdf6a9db	-0.12044116
19	0xbfa57dfe	-1.2929075
20	0x3fefcf67	1.8735169
21	0xbfb82160	-1.4385185
22	0xbf3f754c	-0.74788356
23	0xbf39bc8f	-0.7255334
24	0xc00e5194	-2.2237291
25	0xbd0b3164	-0.03398265
26	0x3e116b24	0.14201027
27	0x3e27acf2	0.16374567
28	0xbe26e2f8	-0.16297519
29	0xbe1a27da	-0.15054265
30	0xbe1f5e8b	-0.15563409
31	0xbf71a0da	-0.94386065
32	0x3e74ee2a	0.23918977
33	0xbf541202	-0.8283998
34	0x3f948ce6	1.1605499
35	0xbe9cd92d	-0.30634442
36	0xbe8a5f05	-0.2702562
37	0x3f19acbd	0.600292
38	0xbea8b104	-0.32947552
39	0x3f04e775	0.51915675
40	0x3f4b3a27	0.7938561
41	0x3fa3970a	1.2780468
42	0x3c369895	0.011144777
43	0x3f4eb4c6	0.8074459
44	0x403fddf4	2.997922
45	0x3dc7f024	0.097626
46	0xbe4685e4	-0.19387013
47	0xbe2807eb	-0.1640927
48	0x3de56128	0.11200172
49	0x3db255b0	0.0870775
50	0x3f4b7582	0.7947618
51	0x3f9ad8c9	1.2097408
52	0x3e6a7df9	0.22899617
53	0xbee45e33	-0.44603118
54	0x3e18b13e	0.14911363
55	0xbfff9d4a	-1.9969876
56	0x3edc024f	0.4297051
57	0x3ed7c3b4	0.42141497
58	0xbf59298b	-0.84829015
59	0xbf8e91d9	-1.1138259
60	0x3f86c87f	1.0529937
61	0x3f8e719f	1.1128424
62	0x3f2816a5	0.6565955
63	0x3f1d9f80	0.615715
64	0x400f53fb	2.2395008
65	0xbe1c4cb6	-0.15263638
66	0x3da49164	0.080355436
67	0x3d8626a0	0.06550336
68	0x3e12e2de	0.14344355
69	0x3d90b6b0	0.07066095
70	0xbeb327db	-0.34991345
71	0x3bef61fd	0.0073053823
72	0x3e7bb529	0.24580826
73	0x3f0caf67	0.5495514
74	0x3e109b8a	0.14121833
75	0x3d179e24	0.03701605
76	0x3e063b82	0.13108638
77	0xbe2ce8df	-0.16885708
78	0xbddefa8e	-0.10887633
79	0xbf0c9d18	-0.54927206

bias f4 [4]
0	0xbf932ab7	-1.149741
1	0x3ea1e273	0.3161808
2	0xbfbf1b17	-1.4930142
3	0xbec2aa9b	-0.38020787

weight f4 [7, 52]
0	0xbf27542a	-0.653628
1	0xbf82f16d	-1.0229927
2	0xbf7fd89d	-0.999399
3	0xbf5d1f2d	-0.86375695
4	0xbf384911	-0.7198649
5	0xbf19e1ba	-0.60110056
6	0xbe905a1c	-0.28193748
7	0xbe8e612d	-0.27808514
8	0xbef78f29	-0.4835141
9	0xbeedfa2f	-0.46479937
10	0xbf5100e3	-0.8164198
11	0xbf9b80a4	-1.2148633
12	0xbf8c41ae	-1.0957544
13	0x3e339d8d	0.1754057
14	0x3d43a2a9	0.047762547
15	0xbe3885a7	-0.18019734
16	0xbf0b354c	-0.543782
17	0xbf1511aa	-0.5823008
18	0xbedd8216	-0.4326331
19	0xbed47905	-0.4149858
20	0xbd57c70b	-0.052680057
21	0x3d8ec286	0.06970696
22	0xbe8d32be	-0.27577776
23	0xbbe5678b	-0.0070008687
24	0x3bbad7c8	0.0057019927
25	0xbb39488b	-0.0028271999
26	0xbe8184db	-0.25296673
27	0xbe23c10e	-0.15991613
28	0xbe63dbe7	-0.22251855
29	0xbe7893af	-0.24275087
30	0xbda3a1a8	-0.07989818
31	0xbcb8c72d	-0.022555912
32	0xbde33942	-0.110949054
33	0xbe02ea2e	-0.12784645
34	0xbe9c0aff	-0.3047714
35	0xbe8cf4f3	-0.2753063
36	0xbe2d0823	-0.16897635
37	0xbeef5ba9	-0.4674962
38	0xbedf20a6	-0.43579596
39	0xbec3f514	-0.38272917
40	0xbf3c9831	-0.73669726
41	0xbf50aa87	-0.81510204
42	0xbf3d2a37	-0.7389254
43	0xbf339457	-0.70148224
44	0xbf1dc7b1	-0.6163283
45	0xbf0f3520	-0.5594044
46	0xbedf449d	-0.43607035
47	0xbf3b12f4	-0.73075795
48	0xbf611386	-0.87920415
49	0xbf81a196	-1.0127437
50	0xbf9e2c71	-1.2357312
51	0xbef61625	-0.4806377
52	0x3e81dab0	0.25362158
53	0x3ed9b2ac	0.42519128
54	0x3ec52cca	0.38510734
55	0x3ea4f9d6	0.3222186
56	0x3e85da96	0.2614333
57	0x3e7f3e72	0.24926165
58	0x3e2f6e58	0.17131937
59	0x3e3870aa	0.18011728
60	0x3e866c9f	0.26254746
61	0x3e8a7773	0.27044258
62	0x3ea0207d	0.31274787
63	0x3ec242ba	0.37941533
64	0x3ec5894d	0.38581315
65	0xbe784bc8	-0.24247658
66	0xbcdc31dc	-0.026879244
67	0x3eaae3a6	0.33376807
68	0x3ea03f2e	0.31298202
69	0x3e2c25ba	0.16811267
70	0x3e75d7ce	0.24008104
71	0x3e645fb3	0.22302131
72	0x3e562af4	0.20914823
73	0x3ec9c46e	0.39407676
74	0x3ebb3343	0.36562547
75	0x3eb375f1	0.3505092
76	0x3d6f73f4	0.05846019
77	0xbcb78d89	-0.022406356
78	0x3eec3cdc	0.46140182
79	0x3ef00706	0.46880358
80	0x3ee43006	0.4456789
81	0x3f39d98a	0.72597563
82	0x3f40d935	0.7533143
83	0x3f426f2d	0.7595089
84	0x3f253555	0.64534503
85	0x3f488c93	0.783395
86	0x3f180415	0.5938123
87	0x3f1ccd76	0.6125101
88	0x3f42a06d	0.7602604
89	0x3f2346bf	0.63779825
90	0x3e84af7d	0.25915137
91	0x3e453789	0.19259466
92	0x3e8c5bf3	0.27413902
93	0x3eac3956	0.33637494
94	0x3e9c5030	0.30529928
95	0x3e32d422	0.17463735
96	0x3e0d8c86	0.13823137
97	0x3d7d760c	0.061880156
98	0x3e007da5	0.1254793
99	0x3e276407	0.16346751
100	0x3e78c974	0.24295598
101	0x3e8ce023	0.27514753
102	0x3ebcdaa5	0.36885563
103	0x3edfbbd8	0.43698
104	0x3ea31a46	0.31855983
105	0x3ee64dd3	0.4498125
106	0x3ec37c57	0.381808
107	0x3e968200	0.29396057
108	0x3e59e36d	0.21278162
109	0x3e5ccf5c	0.21563476
110	0x3e02a4be	0.12758157
111	0x3e0d8826	0.13821468
112	0x3e781e3e	0.24230286
113	0x3e8380f2	0.25684315
114	0x3ebfe128	0.37476468
115	0x3ed73bb7	0.42037746
116	0x3ed993be	0.4249553
117	0xbe3002f0	-0.1718862
118	0x3e3815c8	0.17977059
119	0x3edbddf7	0.42942783
120	0x3ef6265e	0.48076147
121	0x3e954f94	0.29162276
122	0x3ead6f6e	0.33874077
123	0x3e8428a8	0.25812268
124	0x3e89ade9	0.26890495
125	0x3f190d0c	0.5978553
126	0x3eb9d176	0.3629262
127	0x3ecf721a	0.4051674
128	0x3d2dfcf4	0.042477563
129	0xbca48354	-0.020082153
130	0xbef5d31f	-0.48012635
131	0xbf34ba76	-0.70597017
132	0xbf169727	-0.5882439
133	0xbf82e68c	-1.0226607
134	0xbf5c9b17	-0.8617415
135	0xbf3e1262	-0.742468
136	0xbf292f66	-0.6608795
137	0xbf0c3319	-0.5476547
138	0xbeb3644d	-0.3503746
139	0x3dcb777b	0.099348985
140	0x3dadb0c7	0.08480983
141	0xbda1723e	-0.07883118
142	0xbee26a29	-0.4422162
143	0x3e8aacb6	0.27084893
144	0x3eac2401	0.3362122
145	0x3ec37466	0.38174742
146	0x3ea3ac9f	0.31967637
147	0x3e1fa2b0	0.15589404
148	0x3e1166b2	0.14199331
149	0x3d8d2b13	0.068929814
150	0x3e012717	0.12612568
151	0x3e39e28d	0.18152829
152	0x3e89ddc4	0.26927006
153	0x3e94918c	0.29017293
154	0x3ed370ba	0.4129694
155	0x3efaf8f3	0.49018058
156	0xbf4e0481	-0.8047562
157	0xbfbcc781	-1.4748384
158	0xbf542fb8	-0.82885313
159	0xbef38df6	-0.47569245
160	0xbc8a571b	-0.016887238
161	0x3cc3ffe7	0.023925735
162	0x3dd5723b	0.10422178
163	0x3dcd8de0	0.10036826
164	0x3e10fce6	0.14158973
165	0x3d3ec073	0.046570253
166	0x3e83dac4	0.25752842
167	0x3ed5de6f	0.41771266
168	0x3f069990	0.5257807
169	0xbe99d295	-0.30043474
170	0xbf143c41	-0.5790444
171	0xbf031b1d	-0.51213247
172	0xbee65e0a	-0.4499362
173	0xbea66f09	-0.32506588
174	0xbe51506f	-0.20440839
175	0xbe878281	-0.26466754
176	0x3d18451c	0.037175283
177	0x3eeef8d4	0.46674216
178	0x3e2224be	0.15834329
179	0x3e8583db	0.2607716
180	0x3de7115a	0.112826064
181	0x3dfab6a8	0.1224187
182	0xbcd449e9	-0.02591415
183	0xbe4e4860	-0.20144796
184	0xbe785a91	-0.24253298
185	0xbe2628c7	-0.16226493
186	0xbdc1f596	-0.0947067
187	0x3dcade2a	0.09905656
188	0x3dd1c502	0.102426544
189	0xbd2cc280	-0.042177677
190	0xbdfa1957	-0.122118644
191	0xbe231658	-0.15926492
192	0x3c095534	0.00838213
193	0xbf1a9f50	-0.6039934
194	0x3d435b83	0.047694694
195	0xbf809d77	-1.0048054
196	0xbf98e1b2	-1.1943877
197	0xbf4e4dc1	-0.80587393
198	0xbef54c90	-0.47909975
199	0xbd449793	-0.047996115
200	0x3c824825	0.015903542
201	0x3d616078	0.05502364
202	0x3def3fb1	0.1168207
203	0x3e220f5f	0.15826176
204	0x3e3cdcc0	0.18443584
205	0x3e82f788	0.25579476
206	0x3ed542fb	0.41652665
207	0x3f11f8f8	0.5702052
208	0x3f080405	0.53131133
209	0x3f06fa0b	0.52725285
210	0x3ea26fe4	0.3172599
211	0x3df94ca5	0.12172822
212	0xbc09bf54	-0.008407433
213	0xbcb91b73	-0.022596097
214	0xbd84dc74	-0.064873606
215	0xbdca6297	-0.09882086
216	0xbe428ec9	-0.1899978
217	0xbed36add	-0.41292468
218	0xbf3257a7	-0.69664997
219	0xbf377aba	-0.7167164
220	0xbf8609ae	-1.0471704
221	0x3eb71f7d	0.3576621
222	0x3e96f8d1	0.29486707
223	0x3eec2175	0.46119276
224	0x3eaf8d60	0.34287548
225	0x3e5cfc0f	0.21580528
226	0x3eac9328	0.3370602
227	0x3e48e407	0.19618236
228	0x3e8b1d23	0.27170667
229	0x3f0def27	0.5544304
230	0xbeecc95a	-0.4624737
231	0xbf91333e	-1.1343763
232	0xbdfb775f	-0.122786276
233	0xbde3737d	-0.11106012
234	0x3f0c437b	0.5479047
235	0x3d20d5c9	0.03926638
236	0xbe9e6fde	-0.30944723
237	0xbf63448b	-0.88776463
238	0xbf35c2ef	-0.7100057
239	0xbe5ef9e6	-0.21775016
240	0xbe14ce6a	-0.14531866
241	0xbe0da4b9	-0.13832368
242	0xbeb387b1	-0.35064462
243	0xbe942dd9	-0.2894123
244	0xbe71dde5	-0.23619802
245	0xbecd1af6	-0.40059632
246	0xbeb95b07	-0.3620226
247	0x3e8f97d4	0.28045523
248	0x3ea265a3	0.31718168
249	0x3ea42419	0.3205879
250	0x3e84caa1	0.25935844
251	0x3e024938	0.12723243
252	0x3d6fb59f	0.058522817
253	0x3ca8d33e	0.02060854
254	0x3dbd2835	0.092361845
255	0xbe6af591	-0.22945239

bias f4 [7]
0	0x40e2a032	7.082055
1	0xc099ed7a	-4.810239
2	0xc05a61c8	-3.412218
3	0x405b2731	3.424267
4	0x403deb7c	2.9674978
5	0xc0bab544	-5.834627
6	0x3f6ed0ea	0.9328753
