archCheckpoint/CNN4.pt (torch_old, 42989 bytes, 8 tensors)

weight f4 [32, 1, 1, 5]
000000 90 42 c5 3e f4 15 c1 3e 37 aa 2f bf a5 9a c9 3e
       0.38527346 0.3771206 -0.686191 0.39375797
000010 ad 44 b9 3e 8b ab 39 3f 47 06 be 3e 5c 32 b5 3e
       0.36185208 0.7252738 0.37114164 0.35389984
000020 11 00 ca 3e 4e 79 6a 3e d3 01 e5 3e 0b ba 18 3f
       0.39453176 0.22897837 0.44727954 0.5965888
000030 85 20 1a 3f 01 46 3e 3f d0 49 61 3f f6 b9 ca bd
       0.6020587 0.7432557 0.88003254 -0.098987505
000040 7d a8 bb be 96 8c 9b bf b4 d3 8e 3e 95 13 88 3f
       -0.36651984 -1.2152278 0.27895892 1.0630976
000050 86 48 c5 3e d3 b3 86 3d 51 56 0c 3f b0 38 12 3f
       0.38531893 0.065772675 0.5481921 0.5711775
000060 ee 75 46 3f 16 87 6c be 08 ce 61 3e 13 d5 61 3e
       0.77523696 -0.23098406 0.22051251 0.22053938
000070 35 21 8a 3e 20 1a 0d 3f cc ca 3c bd 06 71 0b 3e
       0.2697846 0.5511799 -0.04609184 0.13617334
000080 bd ee 4b 3e 1f 77 e1 3e 4d 98 37 3f ab 8c fc be
       0.1991529 0.44036195 0.7171677 -0.4932607
000090 65 e2 40 3f 49 0d 4b 3f 7d 45 59 bf 4c 41 5a be
       0.7534545 0.79317147 -0.84871656 -0.21313971
0000a0 77 3c 3c 3e 5f e4 3b 3f d0 6d 27 3f 19 d8 af be
       0.1838244 0.7339534 0.65401936 -0.34344557
0000b0 3d ae ac 3d 38 99 2b be 88 74 28 3f 4c cd 42 be
       0.08431671 -0.16757667 0.6580281 -0.19023627
0000c0 86 e1 4c bf 08 b4 c5 3e a7 1d ec bd a3 48 a7 bf
       -0.8003162 0.38613915 -0.11529093 -1.3069042
0000d0 8d f5 bf bf 0e e9 47 be 21 3e ca bd 0c b6 23 3d
       -1.4996811 -0.19522497 -0.098751314 0.039968535
0000e0 b2 76 e2 be f8 87 87 bf 3e 09 3c 3f 1a c8 a7 3e
       -0.44231182 -1.0588369 0.734516 0.32769853
0000f0 4c 0e e8 bf 83 b2 a8 bf 52 6b 3d 3f a3 5f 3d 3f
       -1.8129363 -1.3179477 0.7399188 0.73974055
000100 3a 73 f4 3e af 23 0a bf 60 87 de 3d 87 72 8e 3f
       0.4774416 -0.539607 0.108656645 1.1128701
000110 82 1d b3 3f 89 1d 91 3e 25 8f 42 3f 1e 79 aa 3e
       1.399338 0.28342846 0.7599967 0.3329553
000120 43 bd 17 3f 3a ad 0c 3f 56 e8 3a 3e b1 d0 6e be
       0.59273165 0.5495182 0.18252692 -0.23321797
000130 12 dc ba be 6a 00 ec 3d b1 54 9a 3e 05 d7 bd bd
       -0.36496025 0.115235165 0.3014274 -0.09269527
000140 36 6e 1a 3d 9c 98 57 3f e0 89 7f 3e 1e d7 3f 3f
       0.03770276 0.8421724 0.24954939 0.7493762
000150 8b 8f 09 3f b6 4f de be bb 08 a5 be 8b 8f 5c 3d
       0.53734654 -0.4342019 -0.32233223 0.05384783
000160 da cd 7d 3e f1 ae 73 be 90 ee b7 be 82 aa b9 3d
       0.24785557 -0.23797204 -0.35924196 0.09065725
000170 ac 98 31 3e 9a 0d 38 3e 0f 29 82 bd 68 02 b1 3c
       0.17343396 0.17973939 -0.063554876 0.021607593
000180 f1 fb 83 be 0b 25 24 3e 8f 73 97 3e c0 fe d8 be
       -0.25778154 0.16029756 0.29580352 -0.4238186
000190 02 93 0e 3f c5 6f 03 3d 0e 2b ff 3e 3b 6a 08 3f
       0.55693066 0.032089014 0.49837536 0.53287095
0001a0 02 bd 52 bf 9b c6 b4 be ee e3 f6 3e f5 66 10 bf
       -0.82319653 -0.35307774 0.48220772 -0.564071
0001b0 52 0c 99 3d b8 a3 cb 3d 78 6d ab be 2d f5 d5 3e
       0.07473053 0.09943336 -0.33481956 0.41788617
0001c0 ab 48 fb bd 1c 47 2e bf 79 a1 a2 3e 44 01 5b be
       -0.1226972 -0.68077254 0.3176382 -0.21387202
0001d0 a8 7a ad bd c0 47 bc 3b d8 21 35 bd b8 3e 47 bd
       -0.084706604 0.005745858 -0.04422173 -0.048643798
0001e0 ec 6d c1 be 40 f1 b7 be 76 bf d7 3e e0 2d 77 3d
       -0.37779176 -0.35926247 0.4213826 0.060346484
0001f0 00 fb cc be 83 26 9b bf 0d ae 68 bf 51 11 d3 3e
       -0.40035248 -1.2121128 -0.9089058 0.4122415
000200 05 fc 2e be 2c 3f f5 be 16 15 06 bf 2f 67 3e bf
       -0.17088325 -0.4789976 -0.52375925 -0.74376196
000210 25 7f 2a be 7c db c9 be c8 d3 18 3e ea 8c 82 bd
       -0.16650064 -0.39425266 0.14924538 -0.063745335
000220 ad eb 2e 3e 44 8b 81 3e f1 60 bd 3e 68 a3 13 3f
       0.1708209 0.25301564 0.36988023 0.57671213
000230 a8 9c 53 3d 42 ba 3a be 32 ae d4 be 48 5e 32 bd
       0.05166307 -0.18235114 -0.4153915 -0.043546945
000240 a0 7f ff 3d fb 50 62 3f 67 c6 20 3f 4f 2b 36 3f
       0.124755144 0.88404816 0.6280274 0.71159834
000250 cf 89 3d 3f bc 14 4c 3f f3 5c d6 3e ba 52 14 3f
       0.74038404 0.7971914 0.4186779 0.5793873
000260 71 9e 13 3f 9b d6 1b 3f bf e9 66 3f 3a 1f 33 3f
       0.5766364 0.60874337 0.9020042 0.6996952
000270 b4 5b 38 3f bc 4a 53 3f 01 53 6b 3f e2 36 9d 3f
       0.7201493 0.8253591 0.9192353 1.2282374

bias f4 [32]
000000 59 1b a6 be b1 1d 95 3f 75 be 08 bd 41 25 af 3e
       -0.3244274 1.1649686 -0.03338476 0.3420811
000010 36 79 74 bc 19 74 08 3e 3d f5 3e bd bc de 35 3c
       -0.014921477 0.13325538 -0.046620596 0.011100467
000020 06 c5 de be 55 87 f1 3d a3 cc 82 3f 43 1e 04 3e
       -0.43509692 0.11793391 1.02187 0.12902169
000030 e1 68 72 3e 38 4d 4d bf eb 4d f6 bd 5e fb 34 3c
       0.2367282 -0.8019595 -0.120265804 0.011046259
000040 92 a2 a8 bf 33 82 4c be 45 46 b4 be 2f d8 5a be
       -1.3174613 -0.19971542 -0.3520986 -0.2137153
000050 dc 4e 81 be 06 2d a3 3d 74 7a ce 3e c7 5b de be
       -0.25255477 0.07967572 0.403278 -0.43429396
000060 18 bd d1 be 67 e2 43 3f 04 24 05 3f 1d e5 1f 3f
       -0.4096458 0.7651734 0.5200808 0.62458974
000070 6d a2 d8 be 46 94 4a be 3b d6 37 3d 49 1f 70 be
       -0.4231142 -0.19783124 0.04488204 -0.23449434

weight f4 [16, 32, 1, 5]
000000 12 9f b8 3d f2 fd 4c bc 22 00 be 3d 66 44 e1 3b
       0.09014715 -0.012511717 0.09277369 0.006874609
000010 bf f1 69 3d ea 8f 2c 3a 33 39 36 3d 90 80 90 bd
       0.057115313 0.0006582724 0.044488143 -0.07055771
000020 8b 47 4d be ce f2 18 be e7 b4 8a 3e 2d bb 71 3e
       -0.20046823 -0.14936373 0.27091143 0.23606558
000030 14 fe bd 3d 68 fc c4 bc c0 3d d2 bd 16 cd 4a 3b
       0.09276977 -0.024046138 -0.10265684 0.0030944995
000040 66 96 8b bd e1 c2 08 be 54 99 87 bd c8 d6 8a 3b
       -0.068157956 -0.1335559 -0.06621042 0.0042370297
000050 10 17 74 3e 39 df bf 3d 1a 97 93 3d 61 d7 68 3c
       0.23836923 0.09368748 0.07206555 0.014211507
000060 78 37 e0 bd 32 10 01 3e 8a 71 94 3d f4 0e 8d 3c
       -0.1094808 0.12603834 0.07248218 0.017219044
000070 5a d4 81 3b d0 e6 14 bd 44 27 b1 3d d1 20 17 3e
       0.003962082 -0.036352932 0.086500674 0.14758612
000080 1a 3f 7c bd 3f 2e e9 bd 20 50 2e be f7 40 00 3e
       -0.061583616 -0.11385774 -0.17022753 0.12524782
000090 21 58 58 3d 85 59 e6 bd e6 47 aa bd 44 82 c0 3d
       0.05281842 -0.11247543 -0.08314495 0.09399846
0000a0 be f0 2e 3d 10 6c 95 3d 5d ca 5d 3a ad 86 5c 3c
       0.04271006 0.07296002 0.00084606354 0.013459844
0000b0 03 ed dc 3d a1 cf 10 3d 07 da 87 3c a1 01 24 3d
       0.10787394 0.03535426 0.016583456 0.040040616
0000c0 70 1d c6 bc 2d 83 32 3d 50 77 e9 3d 35 99 34 bc
       -0.024183959 0.04358213 0.1139971 -0.0110228555
0000d0 25 3e 2c bd 80 f1 21 3e aa 54 78 3e 51 5a d8 3d
       -0.042051453 0.15814781 0.24251047 0.105641015
0000e0 a0 68 04 bd 21 21 4d bd cf a5 13 bd d5 aa bb 3d
       -0.03232634 -0.050080422 -0.0360468 0.09163443
0000f0 6d 22 f5 3d c8 a4 b9 3d 29 fe 51 3c 49 19 86 bd
       0.11969457 0.09064633 0.012816944 -0.065477915
000100 c0 36 09 3e b6 06 5e 3e 89 d3 46 3d 45 c3 64 3d
       0.13399792 0.21682248 0.04854158 0.055850286
000110 50 27 ba 3d 96 a2 b5 3d 86 fa 70 3e 0c c9 1f 3e
       0.090895295 0.088689014 0.23533067 0.15604037
000120 db 58 e0 3d f5 7f ae bd a1 0a 8d bd c6 1e 0a bd
       0.10954448 -0.085204996 -0.06886793 -0.033720754
000130 28 06 78 ba 2d 00 51 bc c5 89 85 bd 7d 75 be bc
       -0.00094613666 -0.01275639 -0.06520418 -0.023249382
000140 59 5b bb 3e c7 6b 9e 3e 11 7d 55 3e 4f 53 06 3e
       0.3659313 0.30941603 0.2084849 0.13117717
000150 17 dc 6b 3e 73 96 6a bd 73 3a 82 3d 3f d6 82 3d
       0.23033176 -0.057272386 0.063588046 0.063885204
000160 98 f7 40 bc 00 11 ff 3b 38 63 8e bd 47 bc 14 3d
       -0.011777781 0.007784009 -0.06952518 0.036312368
000170 62 4b f8 bc 8f 8c 1a bd 59 6d 2c 3c d2 28 6d bd
       -0.030309383 -0.037731703 0.010524117 -0.057900257
000180 b1 4e af 3c d9 0d 46 3c 76 2c cb 3b fd 85 1a bd
       0.021399828 0.0120882625 0.0062003685 -0.037725437
000190 01 b7 48 bc f1 f4 d3 3d 90 5c b4 3d c7 b8 b7 3c
       -0.012250663 0.10349453 0.088067174 0.022426976
0001a0 e6 91 c4 3d 1f 90 c6 3d 6a 64 8c 3d f5 50 d5 bc
       0.095981404 0.09695458 0.0685509 -0.02603958
0001b0 f8 42 8f bd 8a 2e cc bc f9 c8 89 bd d6 9a fe bd
       -0.06995195 -0.024924535 -0.067277856 -0.12431876
0001c0 5d 14 fe bd 74 ff ba bc 7e b6 13 3d e0 1c 65 3b
       -0.12406228 -0.022826888 0.03606271 0.0034959838
0001d0 e6 f4 09 bd 4a 9f 47 3d 30 cd 84 bb 45 eb 81 bd
       -0.03368082 0.048735894 -0.0040527806 -0.06343702
0001e0 58 9b 8d 3c b0 af 2c 3c 70 99 0c 3d f4 f5 d6 3c
       0.017285988 0.010539934 0.034326017 0.026240326
0001f0 e6 77 2f bd cf 13 e0 3d b9 d9 fd 3c ea e1 9c bd
       -0.042838953 0.10941278 0.030987607 -0.07660277
000200 7c 22 b8 3d a8 91 32 3e d5 d9 c5 bc 69 a8 3c 3c
       0.089909524 0.17438376 -0.024151722 0.0115147615
000210 a3 2e af 3c 5d 09 72 3d 7c 8c 11 3e 12 13 48 3c
       0.021384543 0.05909096 0.14213747 0.012211578
000220 dd f7 e5 3b 2f 8d e9 bd 79 07 c3 bd 3b 81 3f be
       0.007018073 -0.11403882 -0.0952291 -0.18701641
000230 eb bc 8a bd 56 68 46 3d 24 4d 2e 3d ae 99 8d bc
       -0.067743145 0.048439346 0.042554036 -0.017285194
000240 59 48 53 bd 3c bd a4 3e 1e 4a 50 3e 32 29 3a 3e
       -0.051582668 0.32175624 0.20340773 0.18179777
000250 82 96 b5 bc bc 92 04 be c3 23 50 3e 3f e5 5d 3e
       -0.022166494 -0.129466 0.20326142 0.21669482
000260 42 bd 52 3d 9b d5 23 be d7 9e 10 be d4 7b 99 3e
       0.05145002 -0.15999453 -0.14123093 0.29977286
000270 c9 32 57 3e 23 21 dc 3d 3c f0 39 bd 29 76 44 bd
       0.21015467 0.10748508 -0.04539512 -0.04796425
000280 7a 0f 6a bd dc 00 31 bd 12 f3 b4 bc 17 d8 0a 3d
       -0.057143666 -0.04321371 -0.022088561 0.033897486
000290 0f 1d 81 3d 20 c1 c0 3d d8 11 23 3e 47 66 56 3d
       0.063043706 0.09411836 0.15924776 0.052343633
0002a0 f6 af 8b 3c 90 b2 65 3c 31 2d f4 3d 4d 4b 00 3e
       0.017051678 0.014019623 0.11922682 0.12528725
0002b0 26 9b 2a be ba 81 a3 bd 94 b7 64 bc 1f 67 f7 bd
       -0.16660747 -0.07983728 -0.013959784 -0.12080216
0002c0 b4 eb 1e bd 33 3b 3b bd 20 12 74 3a 28 87 2a bd
       -0.038799003 -0.045710754 0.0009310562 -0.0416328
0002d0 a2 91 0f 3e c6 30 9b 3c 4e 02 63 bd 57 b9 ba 3b
       0.14020398 0.018944155 -0.05542212 0.0056983638
0002e0 7e e1 93 bd 09 f7 7b 3a 76 37 49 3d 5e f7 aa bc
       -0.072207436 0.0009611701 0.049125157 -0.020869907
0002f0 05 e1 9a bd 01 f7 c0 bd 73 c9 e4 3d b8 0a c7 bc
       -0.0756245 -0.09422112 0.11171236 -0.024297103
000300 a5 69 ca bd 8b 84 b6 bd 17 66 ee 3c c5 b0 36 3d
       -0.09883431 -0.08911999 0.029101415 0.044602174
000310 57 ca 66 3d cf f4 8f bb 6a a1 91 3c 97 fd 9a bd
       0.05634531 -0.004393197 0.017777164 -0.075679
000320 41 3e 81 3d 48 29 8c 3d 19 48 3e bc 99 a3 67 3c
       0.06310702 0.06843811 -0.011613869 0.014138126
000330 5a 64 5d bd b0 75 b5 bc 91 08 e4 bc 47 dd 40 3d
       -0.05405078 -0.022150844 -0.027836116 0.047086027
000340 26 58 75 bb 52 4f a4 bd 8d 1a bf bd 8f 56 a3 bc
       -0.0037436574 -0.08022942 -0.09331236 -0.019938735
000350 44 dd 53 bd ed 22 e2 bd d5 10 d5 bd 05 84 6f bd
       -0.051724687 -0.11041818 -0.10403601 -0.058475513
000360 7f 36 b8 3c 73 28 a8 3c cd 18 e0 bb b1 99 af bd
       0.022486923 0.0205271 -0.006838894 -0.08574236
000370 27 7c 33 bd b2 56 65 bd 73 0c 40 bd 7b 29 bb bc
       -0.043819573 -0.055990882 -0.046886873 -0.022846928
000380 d0 3c 13 3d 5d 20 aa 3d 6d 0b 3c 3c bb 56 18 be
       0.035946667 0.08306954 0.0114773335 -0.14876835
000390 fd 06 21 bd a6 d1 85 bd 8d 9e 11 3e b6 73 b2 3c
       -0.039313305 -0.06534128 0.14220639 0.02178369
0003a0 64 2b 76 bd 57 72 93 bd f9 5a c1 bd 3f 72 d9 3b
       -0.060099974 -0.07199543 -0.0944118 0.0066359336
0003b0 df dd a0 3d 04 a8 38 bd 17 2c 6b bd dd 96 cf 3c
       0.078548186 -0.045082107 -0.057415094 0.025340492
0003c0 e6 cb 04 3d 27 98 69 bd 31 0b 9b bd 20 84 e4 bd
       0.032421015 -0.05702987 -0.07570494 -0.11158013
0003d0 51 14 9d bb f9 9d 9d 3d 9e 4c 08 3d 00 e6 a2 3b
       -0.0047936817 0.076961465 0.033276193 0.004971266
0003e0 60 73 44 3c d4 12 6f bd 83 93 0e bd 8c 04 17 3d
       0.011990398 -0.058367565 -0.034808647 0.03686957
0003f0 0c 25 8b 3c 17 98 9f bd 89 49 7f bb dd 4f 88 bd
       0.016985439 -0.07792681 -0.0038953742 -0.06655858

bias f4 [16]
000000 37 e3 53 be f0 33 24 3d 41 54 7d 3e 29 ae 96 3e
       -0.20692144 0.040088594 0.24739172 0.2942975
000010 10 75 25 be 4a 9a bb be 1c 58 11 bd d1 13 e5 3a
       -0.16157937 -0.3664115 -0.03548442 0.0017477219
000020 b1 70 5b bd bc 55 9e be 0e 56 88 3e 8d 06 06 3e
       -0.053574268 -0.30924785 0.26628155 0.13088436
000030 0f 4d 42 3d ce 2e c1 bd f1 67 42 be 40 b8 da 3a
       0.04743677 -0.094327554 -0.18984963 0.0016686991

weight f4 [32, 16, 1, 5]
000000 2f 5b 64 3e c0 25 10 3e ff 4d b5 3d a3 5e 34 3d
       0.22300409 0.140769 0.08852767 0.044035565
000010 6d d8 08 3e 4c 04 ac 3c 44 52 af 3d dd ce 00 3e
       0.1336381 0.020998143 0.08560613 0.12578912
000020 6e bf 3f bc 65 41 1d be 48 45 59 bd 8c af 11 be
       -0.011703355 -0.15356977 -0.053044587 -0.14227122
000030 b8 b2 1d 3d 4a 8a ec 3d d1 8b 19 be be 71 16 bd
       0.038500518 0.11549814 -0.14994742 -0.036729567
000040 25 e3 18 bd 7a e0 38 bd 4f f6 05 3d 95 70 33 be
       -0.037325997 -0.045135953 0.0327056 -0.17523415
000050 5d de 2c 3e eb 84 51 3e 7d 6d 02 3e 90 f1 19 3e
       0.168817 0.2046086 0.12737079 0.15033555
000060 9c da 2b 3f 46 15 c3 3e d4 6d d4 bc ce 24 e6 3d
       0.67130446 0.38102168 -0.025931276 0.11237489
000070 a2 5e 11 3e 6b e0 ae bd 76 37 e0 3d aa 05 6e bd
       0.14196256 -0.08538898 0.10948078 -0.05811087
000080 70 dc d8 3c 50 d6 cd bc ce 63 8d bd 87 a3 83 bc
       0.0264723 -0.025126606 -0.06903802 -0.016069187
000090 19 53 63 bd 3c 3a 33 bd 63 59 72 3d c4 86 66 bd
       -0.05549917 -0.04375671 0.059167277 -0.056280866
0000a0 74 db a9 bb 07 a2 3c 3b 28 a7 17 be 28 22 00 bd
       -0.0051836316 0.00287831 -0.14809859 -0.031282574
0000b0 4c 44 54 be d0 58 d4 3d 9e 8f e7 3c c5 78 83 bb
       -0.20729178 0.10368502 0.028266724 -0.0040121996
0000c0 46 a0 e1 3c 7b 9c 30 be d5 33 56 be 31 04 42 3d
       0.027542245 -0.17247193 -0.2091821 0.04736728
0000d0 79 cf 34 be 44 82 d5 bd 64 f5 85 be 15 51 b1 3d
       -0.1765727 -0.10425237 -0.2616378 0.08658043
0000e0 c0 02 0c 3d f7 87 01 be ff d8 a0 3d ad 84 8f 3e
       0.03418231 -0.12649523 0.07853889 0.2803091
0000f0 77 0e 81 bd 27 59 14 3c 03 ec 88 bc 85 4c 9b bd
       -0.06301587 0.009054459 -0.016714102 -0.07582954
000100 cd 32 7f be 4b 85 b9 3d ac e8 ec 3d 49 99 df 39
       -0.24921723 0.09058627 0.11567816 0.0004264808
000110 82 cd cc 3c 74 dd af 3d f5 6b 52 3e 41 26 aa bb
       0.025000338 0.08587161 0.20548995 -0.0051925485
000120 21 b8 f6 3d f4 66 2f bc 2f a3 0c 3f 84 76 e5 3d
       0.120468386 -0.010705698 0.549365 0.11204246
000130 4c d1 80 bd bf 78 bb bd 26 64 69 3c 97 ed 2d 3c
       -0.0628992 -0.0915389 0.014245069 0.010615728
000140 43 f6 de bd ed 01 ab bc 24 ff 84 be 57 43 48 bc
       -0.108868144 -0.020874942 -0.25975907 -0.012223086
000150 35 f1 86 bd 73 42 b5 3d 94 a5 81 3c 56 a4 42 3c
       -0.06588975 0.08850565 0.015826024 0.011880001
000160 d3 94 12 3e 24 c0 b4 3d f4 9f 45 be 8b 4f ac bd
       0.14314584 0.088257104 -0.19299299 -0.08413609
000170 e6 20 86 3c 8d 4b d8 bd 44 09 13 be b8 97 b1 ba
       0.01637311 -0.10561285 -0.14359003 -0.0013549244
000180 e4 d2 0e 3d a9 83 2d be c7 d4 42 bc b0 d7 d5 bb
       0.03486909 -0.16944756 -0.01189155 -0.006525956
000190 50 66 8c be 82 83 b9 be f3 dc c8 be fa 1c a3 be
       -0.27421808 -0.36233145 -0.3923107 -0.31858045
0001a0 01 89 29 be 7a e6 01 bf 0f 71 da be a3 e3 1e be
       -0.16556169 -0.50742304 -0.42664382 -0.15516524
0001b0 03 22 36 be 3b c4 63 be 60 c4 0a 3b 40 22 cf 3b
       -0.17786412 -0.22242825 0.0021174178 0.0063212216
0001c0 20 3f a8 bb 52 7d 92 bd 0e 85 dc 3d 23 95 db 3c
       -0.005134478 -0.07152809 0.10767566 0.026804512
0001d0 4d ce 1f bb 64 fc 6b 3d 54 f1 da bc 53 27 86 bc
       -0.002438444 0.057613745 -0.026726402 -0.016376173
0001e0 32 b9 26 3e bd e8 c5 bd 96 1b 0e 3e d4 70 38 3e
       0.16281584 -0.09663532 0.1387771 0.1801179
0001f0 a0 78 3b 3e cf 65 61 bd 1e 3f a7 be 4a 55 a9 be
       0.18307734 -0.055028733 -0.32665342 -0.33072883
000200 cb 67 8e be 8d f6 0a 3b fc b8 c4 3d 05 74 4a 3e
       -0.27813563 0.0021204085 0.096055955 0.1977082
000210 53 10 22 bd 40 de 9d 3e a4 42 3a 3e e5 dc db bd
       -0.03956635 0.30833626 0.18189484 -0.10735492
000220 0d 7f 8d 3c dd 3a 70 bd c1 b7 a2 bc 2e bc 28 3d
       0.017272497 -0.058649886 -0.019863011 0.041195087
000230 c0 1d 0a 3d 7a 8b 9b bc b3 46 e6 3d dc 36 19 3e
       0.033719778 -0.018987406 0.112439536 0.14962333
000240 1a 9e 76 3e af 06 b5 bd 8c 69 07 3e 67 4b c6 3c
       0.24083748 -0.088391654 0.13223857 0.024205877
000250 79 9b d9 3d 10 f2 0f 3e 40 8e ba be 4c 14 49 be
       0.10625357 0.14057183 -0.36436653 -0.19636649
000260 fa b6 b4 be b0 48 ae be 3b 45 98 be f2 5e ad 3c
       -0.3529585 -0.3403983 -0.2974032 0.021163438
000270 97 3b 52 3d 29 ec 2e 3c 2c 86 cb bd c5 ec 4c bd
       0.05132636 0.010676422 -0.09937701 -0.05003049
000280 c2 ac 23 3e 55 c5 c6 3d d1 1c 0c be f6 04 54 3e
       0.1598387 0.09705607 -0.13682868 0.20705017
000290 a6 74 b1 bb 21 3c 29 bd 6e fc 18 be 7b 2e b1 3c
       -0.005415517 -0.04131711 -0.14940044 0.021628609
0002a0 8f e7 5f 3b 7f bd 3d 3d 36 fa 80 bd 75 d1 88 be
       0.003416512 0.046323296 -0.06297724 -0.26722303
0002b0 1f 40 15 bb 75 90 f2 bd 50 62 2d be c7 01 39 be
       -0.0022773815 -0.11843959 -0.16932034 -0.18067084
0002c0 e2 c8 8e be 7f 8b 91 bd df c1 4d be 5e e2 ce bd
       -0.27887636 -0.07106685 -0.20093487 -0.1010177
0002d0 4f 74 b8 3d ee 7d 18 3d 95 b0 d7 3c 53 b8 e5 3e
       0.09006559 0.03722947 0.026329318 0.4486719
0002e0 f5 55 b8 bd 22 a7 04 3d ed 43 b5 3d 96 fd ac bd
       -0.0900077 0.032385953 0.088508464 -0.08446805
0002f0 9c 3f d9 3b 3e 4a 95 3e f0 ed de bc 7c ff ba 3d
       0.0066298973 0.29158205 -0.027213067 0.09130761
000300 40 72 2c 3d 66 09 ab bd 4e 4e d0 3d 1f cc 5f bd
       0.042101145 -0.08351402 0.101711854 -0.054638024
000310 63 f1 b2 3d c1 d4 e3 3d ce 8b 0f bd d8 ae c2 bd
       0.08737447 0.11124564 -0.035045438 -0.09506005
000320 e6 09 21 3c cb 26 91 3d 88 bf 0b be da b6 1d bd
       0.00982902 0.07087477 -0.13647282 -0.03850446
000330 98 2b 1a be 75 1d de 3e 7a 1c 3e be 0a 26 6b 3e
       -0.15055692 0.4338185 -0.1856555 0.2296373
000340 2d 97 bb 3e 26 45 55 be 87 a2 aa 3b a2 e7 18 be
       0.36638775 -0.2082716 0.005207363 -0.14932111
000350 c6 7f 74 be 89 07 77 3d 35 e6 aa bd e5 50 94 3d
       -0.23876867 0.06030992 -0.0834469 0.07241992
000360 9b 18 cc bd 8c 5d f3 bd b7 57 fd bd 70 06 1a bd
       -0.099656306 -0.11883077 -0.12370246 -0.037603796
000370 f6 e2 43 be b7 aa b4 bd ad 0f 57 be 4f 4d c3 3c
       -0.19129547 -0.08821624 -0.21002074 0.023840575
000380 96 bd 13 3b 11 8b 5e 3d 7e d6 79 bd 7c b3 38 be
       0.0022543422 0.054331843 -0.06099557 -0.18037218
000390 2d 4c 98 bd d6 7b 3a 3d c3 7f 1f be 1d d4 d5 3e
       -0.074364044 0.045528255 -0.15576081 0.41763392
0003a0 32 01 02 be c2 d9 8e 3e 5a c5 8e 3e d6 b0 df bd
       -0.12695768 0.2790051 0.27884942 -0.10922401
0003b0 76 7c 89 bd b5 56 9e bc 51 3b 8e 3c 3b e6 98 bd
       -0.06713192 -0.019328455 0.017362269 -0.07465788
0003c0 b6 ad c0 bd 0c 7d 0e bd 7a be ae bd 80 07 9a 3b
       -0.09408133 -0.034787223 -0.08532424 0.004700601
0003d0 f9 1f c1 bd b0 05 8d bc 8c 89 39 3d b1 0e dc bd
       -0.094299264 -0.017214626 0.04529719 -0.1074499
0003e0 3c ef cb bd 02 35 b8 3d 5f 0b 96 bd 00 24 e7 3c
       -0.0995774 0.089944854 -0.073263876 0.028215408
0003f0 68 67 41 3c 8b d7 c6 bd 56 56 53 bd 24 28 a7 bc
       0.011804439 -0.0970908 -0.05159601 -0.020404883

bias f4 [32]
000000 1c a4 98 3d c7 e0 69 ba 99 6c 50 be 32 23 93 bd
       0.074531764 -0.0008921739 -0.20353927 -0.07184447
000010 06 f2 0d be 99 46 73 bd 69 2a 1a be 28 d8 d9 bb
       -0.13861856 -0.0593935 -0.1505524 -0.0066480823
000020 d1 79 85 bd 82 e9 b9 bd a4 7e 34 be aa cc 19 be
       -0.06517375 -0.09077741 -0.17626435 -0.1501948
000030 c0 68 09 be 88 24 cb 3d 39 2a 7b bc ec bd ac ba
       -0.13418865 0.09919077 -0.015329891 -0.001317916
000040 dc 0d e7 3d 14 59 ca bd ed 1b fb bc 57 3b cd bc
       0.1128194 -0.098802716 -0.030652964 -0.02505271
000050 d2 0d cf bd ed 23 08 be 93 82 c0 b9 db 3d 41 bd
       -0.10110058 -0.13294955 -0.0003671838 -0.04717813
000060 af 61 99 bd 21 09 6f be 93 48 9b bd 2c b3 0c 3d
       -0.07489335 -0.23343326 -0.07582202 0.03435056
000070 8a bd e5 bd 35 62 c4 bc b5 e1 1d 3c 6b f2 13 3e
       -0.11217792 -0.02397261 0.009636332 0.14447944

weight f4 [7, 96]
000000 7f ff 09 bf 29 2a 2f be ec 17 d0 be c0 b1 b1 3e
       -0.5390548 -0.17105927 -0.4064325 0.34705925
000010 2e 7d 40 3e d2 d5 ad 3e 30 84 a1 3c 4f 47 38 3d
       0.18797752 0.33952194 0.019716352 0.04498988
000020 88 02 95 3b ae 59 07 bd 14 07 b5 bd a5 93 77 bd
       0.004547421 -0.03304451 -0.08839241 -0.06044354
000030 f2 fa 91 bd 7c ff 90 be e8 3a b6 bd a7 52 07 3e
       -0.07127942 -0.2831992 -0.08897954 0.13215123
000040 7b 5c 85 3e ed 23 ab 3d d0 c2 30 be c3 69 24 bd
       0.2604712 0.08356462 -0.17261815 -0.040139925
000050 18 c4 8d be 56 5b a5 be 6f 38 a9 be 35 ea b4 bd
       -0.2768867 -0.32296246 -0.33050868 -0.08833734
000060 78 08 8f bd 8f 67 a5 bd 94 fc 7b be 5d 19 67 bd
       -0.06984037 -0.08076393 -0.2460807 -0.056420673
000070 75 2b c3 bd cc 85 4b bf 88 8c 38 be 6a 98 28 3e
       -0.09529773 -0.7950103 -0.18022358 0.16464391
000080 18 b6 a5 be 97 b6 da be 89 e8 9b 3c fd fe 2f bd
       -0.3236549 -0.4271743 0.01903178 -0.042967785
000090 e7 07 c0 bc da 22 07 be c3 09 37 bf 79 91 a2 3e
       -0.023441268 -0.13196889 -0.7149927 0.31751612
0000a0 be 4a 21 3e 09 dd 98 3e f2 c4 09 bf 9e 0c d3 be
       0.15751168 0.29856136 -0.5381614 -0.41220564
0000b0 f1 5a 5b bf 49 be 0c 3e e2 44 1c 3e 42 2d 24 3e
       -0.8568564 0.13744463 0.15260652 0.1603289
0000c0 51 79 98 bb 1a fd 95 bd b6 89 ce bd 47 3c 37 bf
       -0.004653134 -0.07323666 -0.1008486 -0.7157635
0000d0 00 ad 22 be 3b 1b 84 be ea e6 4e 3d d0 d6 5b 3d
       -0.15886307 -0.25802025 0.050513186 0.053671658
0000e0 83 c4 01 3f 7d 18 c8 be 88 39 2c be b2 a5 ef be
       0.5069048 -0.39081183 -0.16818821 -0.46806103
0000f0 de 13 48 bf ea 5e 7a be 18 1a 4e bf fd e2 01 bf
       -0.78155315 -0.2445027 -0.80508566 -0.5073698
000100 68 35 be be c5 f5 1e bf fc 3a fc be 79 d0 9a 3c
       -0.3715012 -0.62093765 -0.49263752 0.018898236
000110 17 9c 39 bf 06 f1 05 3e d0 a0 8a 3e 94 cf f9 3d
       -0.725038 0.13080224 0.27075815 0.121977955
000120 bc e2 91 3d aa 44 e7 3c 43 5e 9f 3d 04 8f cd be
       0.07123324 0.028230984 0.07781651 -0.40148175
000130 5d 99 30 be 4b 48 17 bf a9 6d 24 3c dc 79 6c bd
       -0.17246003 -0.59094685 0.010035911 -0.0577334
000140 5e ed a4 bd 23 2a 91 bd 37 85 96 3d 50 86 16 3d
       -0.08053087 -0.07088115 0.073496275 0.036749184
000150 9a c2 71 bf 02 26 cc be 48 69 68 bf 23 87 fc be
       -0.94437563 -0.39872748 -0.90785646 -0.4932185
000160 15 c8 1c be 3e e2 78 be 9f 5c 45 3e 5f 90 1b 3e
       -0.153107 -0.24305055 0.19273613 0.15191792
000170 df e5 8f 3e b6 e0 ae bd b9 3a 7b be e0 20 ad bd
       0.28105065 -0.08538954 -0.2453412 -0.08453536
000180 74 7a 19 3e e3 04 fc 3d 5c 03 9c 3e f4 d6 83 be
       0.14988118 0.123056196 0.30471313 -0.25749934
000190 37 2f c7 be ab 0a cd be 97 75 93 3e 19 cd cd 3e
       -0.3890321 -0.40047202 0.2880065 0.4019554
0001a0 a1 e6 a7 3e 20 c8 84 bc 68 09 17 3d 1a 88 b6 bd
       0.32793143 -0.016208708 0.036874205 -0.08912678
0001b0 35 1b b7 3e 5e 5e 71 3e a8 7f ce bc 8b 2f 0d be
       0.35762945 0.23571154 -0.025207356 -0.13787667
0001c0 b4 8a 99 3d dc ba 7d bd 9f fe 9b bc bd 38 36 3e
       0.07497159 -0.06194578 -0.019042311 0.17795081
0001d0 96 db c1 3e 8c bd b3 3e f2 e0 20 3e 76 9b 0f 3d
       0.37862843 0.3510555 0.1571081 0.03506037
0001e0 10 ae 9c 3e 51 31 fb 3d e3 f0 cd 3d db c4 c1 3d
       0.3060155 0.12265266 0.10055711 0.09461375
0001f0 57 0c bf 3d a6 c9 9c 3e cc 46 97 3d 80 26 a2 3d
       0.093285255 0.30622596 0.0738655 0.079174995
000200 fc c8 21 3e bb 6e 5f 3e 2f 2d af 3d 0a 6e 24 3e
       0.15799326 0.21819584 0.0855354 0.16057602
000210 7d 45 e4 3d 39 af 43 3e 6c dc e3 3e 5a 55 d7 be
       0.11146066 0.19109811 0.44504106 -0.42057306
000220 ad ab b9 be 79 37 59 be 7f d8 4f 3e 11 87 0c 3e
       -0.3626379 -0.21212567 0.2029743 0.13723399
000230 63 f7 59 3e 72 d0 f7 bd 13 c9 51 3c 9f 76 2c bd
       0.21285777 -0.12100305 0.0128042875 -0.042105313
000240 b5 52 4b 3e fb 49 88 3e 23 21 85 3e 61 77 9a 3e
       0.19855769 0.26618943 0.26001844 0.30169204
000250 af 58 10 3e 21 2f 31 3e 0f f1 34 bc c5 8a 00 bf
       0.1409633 0.17303135 -0.011043801 -0.50211746
000260 87 c1 86 be 71 c5 c0 3d 30 c0 31 3e 30 2e b1 3e
       -0.26319525 0.09412659 0.1735847 0.3460555
000270 8e 8f 93 3e 43 c3 95 3d 90 01 12 3e 25 fc 84 3e
       0.2882046 0.07312634 0.14258409 0.2597362
000280 58 03 e8 3d 5c 26 38 3e 91 33 8c 3d 18 93 93 3c
       0.11328763 0.17983383 0.06845773 0.018014476
000290 25 47 9c 3e 74 bc 67 be 4a 2b b2 be 43 c0 46 be
       0.3052303 -0.22630483 -0.34798652 -0.1940928
0002a0 c7 9b cb bd a5 c0 09 bf 1d 1d ce be 61 e2 6b 3d
       -0.099418215 -0.5380958 -0.40256587 0.05758894
0002b0 8c df 55 3e f4 78 a8 3e f3 cd d5 3c 3b 75 ec bd
       0.20886058 0.3290478 0.02609918 -0.115457974
0002c0 c0 c7 20 be d9 a4 17 ba 51 6c a3 bb b0 2b 37 3d
       -0.15701199 -0.0005784757 -0.0049872776 0.044719398
0002d0 2f 77 55 3e f9 db b0 3d 34 18 69 3e 0d 07 97 3e
       0.20846246 0.086357065 0.22763139 0.29497567
0002e0 38 6c 87 3d 6a cf 12 3e 84 80 b6 3d 0a e7 dc 3c
       0.06612438 0.14336935 0.08911231 0.026965637
0002f0 93 d7 44 be 58 7e bd 3d 71 df 1c 3e bc ee 91 3e
       -0.1922286 0.09252614 0.15319611 0.28502452
000300 ac f7 0d 3e dc 8e da 3d 69 61 97 3e 4b be 3f bf
       0.1386401 0.106717795 0.29566506 -0.7489974
000310 b5 b3 f6 bd 4a 6b 39 bf 5c 2c e9 be d3 bb 10 bf
       -0.12045995 -0.72429335 -0.45541656 -0.56536597
000320 ee 38 05 bf ab f9 2e bd 88 f8 50 3d f0 4e f6 3c
       -0.5203999 -0.04271857 0.051018268 0.030066937
000330 19 5c b4 3e 47 e0 03 3e 2c 71 ac bd 6b 03 57 3d
       0.35226515 0.12878524 -0.08420023 0.052493494
000340 ba cb 36 3e 05 77 7d 3c 65 e5 ee be 57 2c 85 3d
       0.17851153 0.015470271 -0.4665939 0.06502598
000350 cc e0 c5 3e 73 98 c3 3e e2 7c 8e 3d d6 aa 5c be
       0.3864807 0.38202247 0.06957413 -0.21549544
000360 db 25 b7 3e bd 17 36 3e bb 82 bc 3d 00 ea f5 be
       0.3577107 0.17782493 0.09204622 -0.4803009
000370 ec d2 63 bd 25 fe 30 3e 54 69 46 3e 9c a0 14 3e
       -0.055621073 0.17284448 0.19376117 0.14514393
000380 c1 12 ac 3e f8 b6 91 3e 1e 4f 0d 3e cc d3 8e 3e
       0.33608058 0.28459907 0.13799712 0.27895963
000390 1a 16 98 be 08 6e 17 3d af fa d8 3e fc a0 54 bf
       -0.29704362 0.03697017 0.42378756 -0.8305814
0003a0 24 8c 72 bd a5 dc 40 bf 28 69 36 3e e2 df c6 3d
       -0.05921568 -0.75336677 0.17813551 0.09710671
0003b0 70 cd 41 3e 57 92 39 3d 1e 05 5b 3d 69 0d a8 3d
       0.18926024 0.045305576 0.053471677 0.08205683
0003c0 14 eb e3 be e3 ec c5 be 3f 62 1e bf 10 44 38 3e
       -0.44515288 -0.38657293 -0.6186866 0.17994714
0003d0 66 5f e6 bd e0 15 31 be 51 99 d8 3d ad 52 fc 3e
       -0.112486646 -0.17293501 0.10576118 0.49281827
0003e0 72 1b dd 3e fa 52 97 3d a9 bb 21 3e 07 09 a2 3e
       0.43185002 0.073888734 0.15794243 0.31647512
0003f0 46 45 8f 3e 84 31 8b 3d fb 3a 04 3e c0 fd 73 3e
       0.2798254 0.06796554 0.12913124 0.23827267

bias f4 [7]
000000 d2 28 c9 3f bd 8b 4f bf e7 8b bd be 58 34 8b 3e
       1.5715582 -0.810726 -0.370208 0.27188373
000010 43 0b 2d 3d 1e 61 6b 3e ce 07 9f bf
       0.042247068 0.22986266 -1.2424257
